…
 'n_members': 2,
 'norm': False,
 'reduce': 'min',
 'reset': False,
 'target_reduce': 'min',
 'width': 256)), system=SystemConfig(num_threads=-1, seed=67123, random_seed=False, device='cpu', storing_device='cpu'), logging=LoggingConfig(result_path=PosixPath('objectrl/_logs'), save_frequency=20000, save_params=False))
02-20 11:05:01 INFO     Model: 
TwinDelayedDeepDeterministicPolicyGradient(
  (critic): TD3Critic(
    (loss): MSELoss()
    (model_ensemble): Ensemble(
      (models): ModuleList(
        (0-1): 2 x CriticNet(
          (arch): MLP(
            (model): Sequential(
              (0): Linear(in_features=96, out_features=256, bias=True)
              (1): Leaky()
              (2): Linear(in_features=256, out_features=256, bias=True)
              (3): Leaky()
              (4): Linear(in_features=256, out_features=1, bias=True)
            )
          )
        )
      )
    )
    (target_ensemble): Ensemble(
      (models): ModuleList(
        (0-1): 2 x CriticNet(
          (arch): MLP(
            (model): Sequential(
              (0): Linear(in_features=96, out_features=256, bias=True)
              (1): Leaky()
              (2): Linear(in_features=256, out_features=256, bias=True)
              (3): Leaky()
              (4): Linear(in_features=256, out_features=1, bias=True)
            )
          )
        )
      )
    )
  )
  (actor): TD3Actor(
    (model): ActorNet(
      (arch): Sequential(
        (0): SNN(
          (model): Sequential(
            (0): Linear(in_features=74, out_features=512, bias=True)
            (1): Softplus(beta=2, threshold=5)
            (2): Leaky()
            (3): Linear(in_features=512, out_features=512, bias=True)
            (4): Leaky()
            (5): Linear(in_features=512, out_features=512, bias=True)
            (6): Leaky()
            (7): Linear(in_features=512, out_features=512, bias=True)
            (8): Leaky()
            (9): Linear(in_features=512, out_features=22, bias=True)
            (10): Leaky()
          )
        )
        (1): Tanh()
      )
    )
    (target): ActorNet(
      (arch): Sequential(
        (0): SNN(
          (model): Sequential(
            (0): Linear(in_features=74, out_features=512, bias=True)
            (1): Softplus(beta=2, threshold=5)
            (2): Leaky()
            (3): Linear(in_features=512, out_features=512, bias=True)
            (4): Leaky()
            (5): Linear(in_features=512, out_features=512, bias=True)
            (6): Leaky()
            (7): Linear(in_features=512, out_features=512, bias=True)
            (8): Leaky()
            (9): Linear(in_features=512, out_features=22, bias=True)
            (10): Leaky()
          )
        )
        (1): Tanh()
      )
    )
  )
)
02-20 11:05:03 INFO     Episode:    1	N-steps:     499	Reward:      0.023
02-20 11:05:58 INFO     Episode:    2	N-steps:     999	Reward:     -0.020
02-20 11:07:22 INFO     Episode:    3	N-steps:    1499	Reward:      0.057
02-20 11:09:21 INFO     Episode:    4	N-steps:    1999	Reward:      0.021
…
